node {
  name: "FirstLayer_input"
  op: "Placeholder"
  attr {
    key: "dtype"
    value {
      type: DT_FLOAT
    }
  }
  attr {
    key: "shape"
    value {
      shape {
        dim {
          size: -1
        }
        dim {
          size: 28
        }
      }
    }
  }
}
node {
  name: "sequential_1/FirstLayer/MatMul/ReadVariableOp/resource"
  op: "Const"
  attr {
    key: "dtype"
    value {
      type: DT_FLOAT
    }
  }
  attr {
    key: "value"
    value {
      tensor {
        dtype: DT_FLOAT
        tensor_shape {
          dim {
            size: 28
          }
          dim {
            size: 28
          }
        }
        tensor_content: "…"
      }
    }
  }
}
node {
  name: "sequential_1/FirstLayer/MatMul/ReadVariableOp"
  op: "Identity"
  input: "sequential_1/FirstLayer/MatMul/ReadVariableOp/resource"
  attr {
    key: "T"
    value {
      type: DT_FLOAT
    }
  }
}
node {
  name: "sequential_1/FirstLayer/MatMul"
  op: "MatMul"
  input: "FirstLayer_input"
  input: "sequential_1/FirstLayer/MatMul/ReadVariableOp"
  attr {
    key: "T"
    value {
      type: DT_FLOAT
    }
  }
  attr {
    key: "transpose_a"
    value {
      b: false
    }
  }
  attr {
    key: "transpose_b"
    value {
      b: false
    }
  }
}
node {
  name: "sequential_1/FirstLayer/BiasAdd/ReadVariableOp/resource"
  op: "Const"
  attr {
    key: "dtype"
    value {
      type: DT_FLOAT
    }
  }
  attr {
    key: "value"
    value {
      tensor {
        dtype: DT_FLOAT
        tensor_shape {
          dim {
            size: 28
          }
        }
        tensor_content: "…"
      }
    }
  }
}
node {
  name: "sequential_1/FirstLayer/BiasAdd/ReadVariableOp"
  op: "Identity"
  input: "sequential_1/FirstLayer/BiasAdd/ReadVariableOp/resource"
  attr {
    key: "T"
    value {
      type: DT_FLOAT
    }
  }
}
node {
  name: "sequential_1/FirstLayer/BiasAdd"
  op: "BiasAdd"
  input: "sequential_1/FirstLayer/MatMul"
  input: "sequential_1/FirstLayer/BiasAdd/ReadVariableOp"
  attr {
    key: "T"
    value {
      type: DT_FLOAT
    }
  }
  attr {
    key: "data_format"
    value {
      s: "NHWC"
    }
  }
}
node {
  name: "sequential_1/FirstLayer/Relu"
  op: "Relu"
  input: "sequential_1/FirstLayer/BiasAdd"
  attr {
    key: "T"
    value {
      type: DT_FLOAT
    }
  }
}
node {
  name: "sequential_1/dense_2/MatMul/ReadVariableOp/resource"
  op: "Const"
  attr {
    key: "dtype"
    value {
      type: DT_FLOAT
    }
  }
  attr {
    key: "value"
    value {
      tensor {
        dtype: DT_FLOAT
        tensor_shape {
          dim {
            size: 28
          }
          dim {
            size: 52
          }
        }
        tensor_content: "…"
      }
    }
  }
}
node {
  name: "sequential_1/dense_2/MatMul/ReadVariableOp"
  op: "Identity"
  input: "sequential_1/dense_2/MatMul/ReadVariableOp/resource"
  attr {
    key: "T"
    value {
      type: DT_FLOAT
    }
  }
}
node {
  name: "sequential_1/dense_2/MatMul"
  op: "MatMul"
  input: "sequential_1/FirstLayer/Relu"
  input: "sequential_1/dense_2/MatMul/ReadVariableOp"
  attr {
    key: "T"
    value {
      type: DT_FLOAT
    }
  }
  attr {
    key: "transpose_a"
    value {
      b: false
    }
  }
  attr {
    key: "transpose_b"
    value {
      b: false
    }
  }
}
node {
  name: "sequential_1/dense_2/BiasAdd/ReadVariableOp/resource"
  op: "Const"
  attr {
    key: "dtype"
    value {
      type: DT_FLOAT
    }
  }
  attr {
    key: "value"
    value {
      tensor {
        dtype: DT_FLOAT
        tensor_shape {
          dim {
            size: 52
          }
        }
        tensor_content: "…"
      }
    }
  }
}
node {
  name: "sequential_1/dense_2/BiasAdd/ReadVariableOp"
  op: "Identity"
  input: "sequential_1/dense_2/BiasAdd/ReadVariableOp/resource"
  attr {
    key: "T"
    value {
      type: DT_FLOAT
    }
  }
}
node {
  name: "sequential_1/dense_2/BiasAdd"
  op: "BiasAdd"
  input: "sequential_1/dense_2/MatMul"
  input: "sequential_1/dense_2/BiasAdd/ReadVariableOp"
  attr {
    key: "T"
    value {
      type: DT_FLOAT
    }
  }
  attr {
    key: "data_format"
    value {
      s: "NHWC"
    }
  }
}
node {
  name: "sequential_1/dense_2/Relu"
  op: "Relu"
  input: "sequential_1/dense_2/BiasAdd"
  attr {
    key: "T"
    value {
      type: DT_FLOAT
    }
  }
}
node {
  name: "sequential_1/dense_3/MatMul/ReadVariableOp/resource"
  op: "Const"
  attr {
    key: "dtype"
    value {
      type: DT_FLOAT
    }
  }
  attr {
    key: "value"
    value {
      tensor {
        dtype: DT_FLOAT
        tensor_shape {
          dim {
            size: 52
          }
          dim {
            size: 26
          }
        }
        tensor_content: "…"
      }
    }
  }
}
node {
  name: "sequential_1/dense_3/MatMul/ReadVariableOp"
  op: "Identity"
  input: "sequential_1/dense_3/MatMul/ReadVariableOp/resource"
  attr {
    key: "T"
    value {
      type: DT_FLOAT
    }
  }
}
node {
  name: "sequential_1/dense_3/MatMul"
  op: "MatMul"
  input: "sequential_1/dense_2/Relu"
  input: "sequential_1/dense_3/MatMul/ReadVariableOp"
  attr {
    key: "T"
    value {
      type: DT_FLOAT
    }
  }
  attr {
    key: "transpose_a"
    value {
      b: false
    }
  }
  attr {
    key: "transpose_b"
    value {
      b: false
    }
  }
}
node {
  name: "sequential_1/dense_3/BiasAdd/ReadVariableOp/resource"
  op: "Const"
  attr {
    key: "dtype"
    value {
      type: DT_FLOAT
    }
  }
  attr {
    key: "value"
    value {
      tensor {
        dtype: DT_FLOAT
        tensor_shape {
          dim {
            size: 26
          }
        }
        tensor_content: "…"
      }
    }
  }
}
node {
  name: "sequential_1/dense_3/BiasAdd/ReadVariableOp"
  op: "Identity"
  input: "sequential_1/dense_3/BiasAdd/ReadVariableOp/resource"
  attr {
    key: "T"
    value {
      type: DT_FLOAT
    }
  }
}
node {
  name: "sequential_1/dense_3/BiasAdd"
  op: "BiasAdd"
  input: "sequential_1/dense_3/MatMul"
  input: "sequential_1/dense_3/BiasAdd/ReadVariableOp"
  attr {
    key: "T"
    value {
      type: DT_FLOAT
    }
  }
  attr {
    key: "data_format"
    value {
      s: "NHWC"
    }
  }
}
node {
  name: "sequential_1/dense_3/Relu"
  op: "Relu"
  input: "sequential_1/dense_3/BiasAdd"
  attr {
    key: "T"
    value {
      type: DT_FLOAT
    }
  }
}
node {
  name: "sequential_1/dropout_1/Identity"
  op: "Identity"
  input: "sequential_1/dense_3/Relu"
  attr {
    key: "T"
    value {
      type: DT_FLOAT
    }
  }
}
node {
  name: "sequential_1/FinalLayer/MatMul/ReadVariableOp/resource"
  op: "Const"
  attr {
    key: "dtype"
    value {
      type: DT_FLOAT
    }
  }
  attr {
    key: "value"
    value {
      tensor {
        dtype: DT_FLOAT
        tensor_shape {
          dim {
            size: 26
          }
          dim {
            size: 5
          }
        }
        tensor_content: "…"
      }
    }
  }
}
node {
  name: "sequential_1/FinalLayer/MatMul/ReadVariableOp"
  op: "Identity"
  input: "sequential_1/FinalLayer/MatMul/ReadVariableOp/resource"
  attr {
    key: "T"
    value {
      type: DT_FLOAT
    }
  }
}
node {
  name: "sequential_1/FinalLayer/MatMul"
  op: "MatMul"
  input: "sequential_1/dropout_1/Identity"
  input: "sequential_1/FinalLayer/MatMul/ReadVariableOp"
  attr {
    key: "T"
    value {
      type: DT_FLOAT
    }
  }
  attr {
    key: "transpose_a"
    value {
      b: false
    }
  }
  attr {
    key: "transpose_b"
    value {
      b: false
    }
  }
}
node {
  name: "sequential_1/FinalLayer/BiasAdd/ReadVariableOp/resource"
  op: "Const"
  attr {
    key: "dtype"
    value {
      type: DT_FLOAT
    }
  }
  attr {
    key: "value"
    value {
      tensor {
        dtype: DT_FLOAT
        tensor_shape {
          dim {
            size: 5
          }
        }
        tensor_content: "\003a+\275\360F\006=\263\331\014\276\335\267\272=tB3\276"
      }
    }
  }
}
node {
  name: "sequential_1/FinalLayer/BiasAdd/ReadVariableOp"
  op: "Identity"
  input: "sequential_1/FinalLayer/BiasAdd/ReadVariableOp/resource"
  attr {
    key: "T"
    value {
      type: DT_FLOAT
    }
  }
}
node {
  name: "sequential_1/FinalLayer/BiasAdd"
  op: "BiasAdd"
  input: "sequential_1/FinalLayer/MatMul"
  input: "sequential_1/FinalLayer/BiasAdd/ReadVariableOp"
  attr {
    key: "T"
    value {
      type: DT_FLOAT
    }
  }
  attr {
    key: "data_format"
    value {
      s: "NHWC"
    }
  }
}
node {
  name: "sequential_1/FinalLayer/Softmax"
  op: "Softmax"
  input: "sequential_1/FinalLayer/BiasAdd"
  attr {
    key: "T"
    value {
      type: DT_FLOAT
    }
  }
}
node {
  name: "Identity"
  op: "Identity"
  input: "sequential_1/FinalLayer/Softmax"
  input: "^sequential_1/FinalLayer/BiasAdd/ReadVariableOp"
  input: "^sequential_1/FinalLayer/MatMul/ReadVariableOp"
  input: "^sequential_1/FirstLayer/BiasAdd/ReadVariableOp"
  input: "^sequential_1/FirstLayer/MatMul/ReadVariableOp"
  input: "^sequential_1/dense_2/BiasAdd/ReadVariableOp"
  input: "^sequential_1/dense_2/MatMul/ReadVariableOp"
  input: "^sequential_1/dense_3/BiasAdd/ReadVariableOp"
  input: "^sequential_1/dense_3/MatMul/ReadVariableOp"
  attr {
    key: "T"
    value {
      type: DT_FLOAT
    }
  }
}
versions {
  producer: 561
}
